…
chs_4s_large4E.ckpt', model_key='model|module|state_dict', model_prefix='', model_filter_name='gzp', init_scale=0.001, use_mean_pooling=True, disable_weight_decay_on_rel_pos_bias=False, nb_classes=4, device='cuda', seed=0, resume='', auto_resume=False, save_ckpt=True, start_epoch=0, eval=False, dist_eval=True, num_workers=0, pin_mem=True, distributed=False, world_size=1, local_rank=-1, dist_on_itp=False, dist_url='env://', enable_deepspeed=False, dataset='KHULA')

model:  EEGPTClassifier(
  (chan_conv): Sequential(
    (0): Conv2dWithConstraint(54, 54, kernel_size=(1, 1), stride=(1, 1))
    (1): BatchNorm2d(54, eps=1e-05, momentum=0.1, affine=True, track_running_stats=True)
    (2): GELU(approximate='none')
    (3): Conv2d(54, 54, kernel_size=(1, 55), stride=(1, 1), padding=same, groups=54)
    (4): BatchNorm2d(54, eps=1e-05, momentum=0.1, affine=True, track_running_stats=True)
    (5): Dropout(p=0.8, inplace=False)
  )
  (target_encoder): EEGTransformer(
    (patch_embed): PatchEmbed(
      (proj): Conv2d(1, 512, kernel_size=(1, 64), stride=(1, 64))
    )
    (chan_embed): Embedding(58, 512)
    (blocks): ModuleList(
      (0-7): 8 x Block(
        (norm1): LayerNorm((512,), eps=1e-06, elementwise_affine=True)
        (attn): Attention(
          (qkv): Linear(in_features=512, out_features=1536, bias=True)
          (proj): Linear(in_features=512, out_features=512, bias=True)
          (proj_drop): Dropout(p=0.0, inplace=False)
        )
        (drop_path): Identity()
        (norm2): LayerNorm((512,), eps=1e-06, elementwise_affine=True)
        (mlp): MLP(
          (fc1): Linear(in_features=512, out_features=2048, bias=True)
          (act): GELU(approximate='none')
          (fc2): Linear(in_features=2048, out_features=512, bias=True)
          (drop): Dropout(p=0.0, inplace=False)
        )
      )
    )
    (norm): LayerNorm((512,), eps=1e-06, elementwise_affine=True)
  )
  (reconstructor): EEGTransformerReconstructor(
    (reconstructor_embed): Linear(in_features=512, out_features=512, bias=True)
    (time_embed): RotaryEmbedding()
    (chan_embed): Embedding(58, 512)
    (reconstructor_blocks): ModuleList(
      (0-7): 8 x Block(
        (norm1): LayerNorm((512,), eps=1e-06, elementwise_affine=True)
        (attn): Attention(
          (qkv): Linear(in_features=512, out_features=1536, bias=True)
          (proj): Linear(in_features=512, out_features=512, bias=True)
          (proj_drop): Dropout(p=0.0, inplace=False)
        )
        (drop_path): Identity()
        (norm2): LayerNorm((512,), eps=1e-06, elementwise_affine=True)
        (mlp): MLP(
          (fc1): Linear(in_features=512, out_features=2048, bias=True)
          (act): GELU(approximate='none')
          (fc2): Linear(in_features=2048, out_features=512, bias=True)
          (drop): Dropout(p=0.0, inplace=False)
        )
      )
    )
    (reconstructor_norm): LayerNorm((512,), eps=1e-06, elementwise_affine=True)
    (reconstructor_proj): Linear(in_features=512, out_features=64, bias=True)
  )
  (norm): Identity()
  (fc_norm): LayerNorm((512,), eps=1e-05, elementwise_affine=True)
  (head): Sequential(
    (0): Dropout(p=0.8, inplace=False)
    (1): LinearWithConstraint(in_features=32768, out_features=4, bias=True)
  )
)